main/test.safetensors (safetensors, 8248 bytes, 4 tensors)

0.0.1.bias f4 [10]
0	0x3ca3da30	0.0200015
1	0x3c9e8568	0.019350722
2	0xbd83b222	-0.064304605
3	0xbc12e038	-0.008964591
4	0x3d021750	0.031760514
5	0xbb54ee00	-0.0032490492
6	0x3d29345e	0.041309707
7	0xbd87eacc	-0.06636581
8	0x3c262e30	0.010142848
9	0x3d4fa8c6	0.050698064

0.0.1.weight f4 [10, 192]
0	0x3d323984	0.043511882
1	0x3d08a2c0	0.033358335
2	0x3c02bf98	0.00798025
3	0x3d21abe6	0.039470576
4	0x3d36e294	0.044649675
5	0xbd8c2974	-0.06843844
6	0x3ccac1ec	0.024750672
7	0x3c4705a8	0.012147345
8	0x3d5b1e24	0.05349554
9	0xbd0c9b3a	-0.034327723
10	0xbd5efc51	-0.054439846
11	0x3d20ccea	0.03925792
12	0xbd7e00b9	-0.062012408
13	0xbd264eed	-0.040602613
14	0x3d2ae3da	0.041721202
15	0x3d2da536	0.042393886
16	0x3c8aceb8	0.016944274
17	0x3d136918	0.035988897
18	0x3b8e9f10	0.004352458
19	0x3d8a9e9a	0.06768532
20	0x3d4ee990	0.05051571
21	0x3d92b68a	0.07163723
22	0xbd009a9b	-0.031397443
23	0xbd5533fc	-0.05205153
24	0xbd8623f9	-0.0654983
25	0xbd64e076	-0.055878125
26	0x3d9103a6	0.07080774
27	0x3d89682e	0.06709324
28	0xbd2dd3b0	-0.04243821
29	0xbd8532e9	-0.06503851
30	0xbc241e24	-0.010016952
31	0xbc2fb3b4	-0.010723997
32	0x3cb393d8	0.021921083
33	0xbbba71d0	-0.005689837
34	0xbd3694d1	-0.044575516
35	0x3d7ad3b0	0.061237037
36	0x3d927452	0.071510926
37	0xbd21601e	-0.039398305
38	0xbc7514cc	-0.014958572
39	0x3c0c4f80	0.008563876
40	0x3cdbd0c8	0.026832953
41	0xbd4bbc7c	-0.0497403
42	0x3d02a630	0.03189677
43	0x3d46597c	0.048425183
44	0xbba77b50	-0.0051111355
45	0xbd2ea83e	-0.042640917
46	0xbd7add93	-0.061246466
47	0x39ecce00	0.0004516691
48	0x3d60dcd4	0.054898098
49	0x3ca2e06c	0.019882403
50	0x3d1246fa	0.03571222
51	0xbb4811e0	-0.0030528232
52	0xbcb7f74a	-0.022456784
53	0x3d5e56d8	0.05428204
54	0x3d2d9382	0.042377003
55	0x3d5b2308	0.053500205
56	0x3d092384	0.033481136
57	0xbd811c38	-0.063042104
58	0x3d7b67d8	0.06137833
59	0x3d8fed2e	0.0702766
60	0xbd481816	-0.048851095
61	0xbd276e65	-0.040876765
62	0xbc151538	-0.009099297
63	0x3d8d04c0	0.068856716
64	0xbceff702	-0.029292587
65	0x3d76cba8	0.060252815
66	0xbc842a76	-0.016133528
67	0x3cd18718	0.025577113
68	0xbc8eec46	-0.017446648
69	0xbd8f5c37	-0.070000105
70	0x3d3c6306	0.045992874
71	0xbd7eadd6	-0.0621775
72	0x3d526d0e	0.051373534
73	0x3c8bb51c	0.017054133
74	0x3ced76cc	0.02898731
75	0x3c8685b0	0.016421169
76	0x3ccaf854	0.024776615
77	0x3d28a268	0.041170508
78	0xbccefbf2	-0.025266621
79	0x3cc42618	0.023943946
80	0x3d5792ac	0.05263011
81	0xbd75b3a4	-0.05998577
82	0x3d3aea6e	0.045633726
83	0xbd75f686	-0.060049556
84	0x3d866e64	0.06564024
85	0x3b310020	0.002700813
86	0x3d556f3c	0.052108034
87	0x3d1589e0	0.03650844
88	0xbd117b1d	-0.0355178
89	0x3d596e3c	0.053083643
90	0xbd459af6	-0.048243485
91	0xbd73cf92	-0.059524126
92	0xbd1c3ac0	-0.038141966
93	0xbcb0090a	-0.021488685
94	0x3d6b3b00	0.057429314
95	0xbd38d6ec	-0.04512684
96	0x3d63b5b4	0.055593207
97	0x3b544960	0.0032392368
98	0x3c91997c	0.017773382
99	0x3d8ce840	0.06880236
100	0xbc538d68	-0.012912132
101	0xbd0ba1de	-0.034089915
102	0xbc6488c8	-0.013948627
103	0xbd13b5d8	-0.03606209
104	0xbb1f4060	-0.0024299845
105	0x3d8f5b60	0.0699985
106	0x3d939e4a	0.072079256
107	0x3cc44bbc	0.023961894
108	0xbd6e289a	-0.05814419
109	0x3ccb7448	0.02483572
110	0x3c92324c	0.017846249
111	0x3d2c81d0	0.042115986
112	0x3ce865d0	0.02836886
113	0xbcf546f4	-0.02994106
114	0x3d32ffea	0.04370109
115	0x3c9effb4	0.019409038
116	0x3d74ce8c	0.05976729
117	0xbd89a85e	-0.067215666
118	0x3d767514	0.06017025
119	0xbd762f5b	-0.060103755
120	0xbd8f3394	-0.069922596
121	0xbd352bf4	-0.04423137
122	0x3d12315c	0.035691604
123	0x3cb84d90	0.022497922
124	0x3d0f6ed0	0.03501779
125	0x3c40a350	0.011757687
126	0xbd81ebf3	-0.06343832
127	0xbd393004	-0.045211807
128	0x3d5900a8	0.05297914
129	0xbd27c39b	-0.04095803
130	0x3d06da56	0.032923065
131	0xbcd67978	-0.026180968
132	0xbce8dc36	-0.028425317
133	0xbcadb9d4	-0.021206774
134	0x3c87ba74	0.0165684
135	0x3c064bf8	0.008196823
136	0xbd333224	-0.04374899
137	0x3c9f0538	0.019411668
138	0xbbe74a50	-0.0070584193
139	0xbd8e76f4	-0.06956282
140	0x3c363230	0.011120364
141	0xbd766cdc	-0.06016241
142	0xbd374cf0	-0.044751108
143	0xbcd0442a	-0.025423128
144	0x3d0892d0	0.033343136
145	0xbd164293	-0.036684584
146	0xbd86cf2f	-0.06582486
147	0xbd88562b	-0.0665706
148	0x3c5e1a88	0.01355613
149	0x3d7595f0	0.059957445
150	0xbd1015bc	-0.035176978
151	0xbc0970d0	-0.008388713
152	0xbd4ab81a	-0.04949198
153	0x3c821ab0	0.015881866
154	0xbc233fc8	-0.009963937
155	0xbd85ba2c	-0.0652965
156	0xbd355eec	-0.044279978
157	0x3d31e522	0.04343141
158	0x3bda7140	0.0066663325
159	0x3d3982b0	0.04529065
160	0xbcb22ac8	-0.021748915
161	0x3d49b95e	0.049249046
162	0x3d37b312	0.04484851
163	0x3d75df98	0.06002769
164	0x3d87bdf6	0.06628029
165	0x3d1d061e	0.038335912
166	0xbd818aed	-0.06325326
167	0x3d607f40	0.054808855
168	0xbd8cea22	-0.06880595
169	0xbcaee194	-0.021347798
170	0x3d85a50c	0.06525621
171	0x3d670e78	0.056410283
172	0xbd4f08e2	-0.05054558
173	0x3bc29ee0	0.0059393495
174	0x3d84828c	0.06470212
175	0xbd687367	-0.05675068
176	0x3bee4580	0.0072714686
177	0xbcfb9740	-0.03071177
178	0x3d53f2fa	0.051745392
179	0xbca4221c	-0.020035796
180	0x3d0c1916	0.03420361
181	0x3d1fdbc6	0.03902795
182	0xbd86d834	-0.06584206
183	0x3d536a8c	0.051615283
184	0xbba7d7e0	-0.00512217
185	0xbd40c8c0	-0.04706645
186	0xbcbf7ef4	-0.023375966
187	0x3b13c720	0.0022549108
188	0x3caa4244	0.020783551
189	0xbd320f76	-0.043471776
190	0xbc6a1cc8	-0.014289089
191	0xbd68419b	-0.05670319
192	0xbb2eefa0	-0.002669312
193	0xbd01014d	-0.03149538
194	0xbcdc6aa4	-0.026906319
195	0xbcd0bce8	-0.025480703
196	0x3d8f03e4	0.06983164
197	0xbd0143ce	-0.031558804
198	0x3d29c69e	0.04144918
199	0xbcdefacc	-0.027219199
200	0x3d7f2f40	0.06230092
201	0x3d4b30fc	0.049607262
202	0xbceb4ad8	-0.028722212
203	0x3d5b9ebc	0.053618178
204	0xbd7fbb07	-0.062434223
205	0xb9875100	-0.00025809556
206	0x3cfcaa90	0.03084305
207	0x3c056d30	0.008143708
208	0xbd390cb0	-0.045178115
209	0x3d22036a	0.039554037
210	0xbd1d6cbe	-0.038433783
211	0x3b4949a0	0.003071405
212	0xbd60f4e2	-0.05492104
213	0xbd78c15b	-0.060731273
214	0xbc444bc4	-0.011980955
215	0x3d8d5c04	0.06902316
216	0x3b9f9fb0	0.004871331
217	0x3d1825da	0.037145473
218	0xbd268c5c	-0.0406612
219	0xbd29fc71	-0.041500513
220	0xbd4cfcc1	-0.050045732
221	0x3d02918c	0.031877086
222	0xbcfc8bb8	-0.030828342
223	0x3d8fce54	0.07021776
224	0xbcd638ce	-0.026150133
225	0xbd41a9d8	-0.047281116
226	0x3bffb540	0.007803589
227	0xbd11d844	-0.035606638
228	0x3c550a50	0.013002947
229	0xbcb78f3a	-0.022407163
230	0xbd02a47e	-0.031895153
231	0xbcffe7f8	-0.031238541
232	0x3ca63dc8	0.020293131
233	0x3d636584	0.055516735
234	0xbaaf2500	-0.0013362467
235	0x3c697e18	0.0142512545
236	0xbd404b08	-0.046946555
237	0xbd30defc	-0.043181404
238	0xbb561ec0	-0.0032672137
239	0x3bad9680	0.005297482
240	0xbd0bf48e	-0.034168772
241	0xb9b74a00	-0.00034959614
242	0x3d26e242	0.04074312
243	0xbd5bc348	-0.05365303
244	0xbc44b524	-0.012006078
245	0x3d3f1c08	0.046657592
246	0x3cc7f404	0.024408348
247	0xbcdebc56	-0.027189415
248	0xbd8c6169	-0.06854517
249	0x3d298ff8	0.041397065
250	0x3d24d458	0.04024157
251	0x3cb4175c	0.021983795
252	0xbd905980	-0.07048321
253	0x3d624fc8	0.055251867
254	0xbc76eae8	-0.015070654
255	0x3c3d2ee0	0.01154682

0.1.0.0.weight f4 [1, 10]
0	0xbe344657	-0.17604958
1	0x3e8cfac3	0.27535066
2	0xbe034674	-0.12819844
3	0x3d918af0	0.07106578
4	0x3d817108	0.06320387
5	0x3d7a1280	0.0610528
6	0x3e8d6323	0.27614698
7	0xbe5e31b0	-0.21698642
8	0xbde04298	-0.10950202
9	0x3db0c2b0	0.08630884

0.1.0.1.weight f4 [1, 10]
0	0x3e3b982a	0.18319765
1	0xbe76a399	-0.24085845
2	0x3e612692	0.2198737
3	0x3e530ca2	0.20610288
4	0x3e9db3a5	0.3080112
5	0x3e979e57	0.2961299
6	0x3d6e76d0	0.058218777
7	0xbb054f80	-0.0020341575
8	0xbe1f2682	-0.15542033
9	0x3e56ffe6	0.20996055
